mediapipe/Latihan MediaPipe (text classification)/app/src/main/assets/wordvec.tflite (tflite, 775706 bytes, 5 tensors)

sequential/dense_1/BiasAdd/ReadVariableOp f4 [2]
000000 a1 cd ba 3e a2 cd ba be
       0.36485007 -0.3648501

sequential/dense/BiasAdd/ReadVariableOp f4 [16]
000000 87 b9 a0 3d 84 a1 ad bc 86 21 03 bc 0d 28 f9 bc
       0.078478865 -0.02119518 -0.008003598 -0.030414606
000010 a7 e9 c4 bc b6 65 11 bd 90 d8 de bc 1f 0f 97 3b
       -0.024037195 -0.03549739 -0.027202874 0.004609957
000020 71 9d 9d bc 46 4d a6 ba 4a 0c a0 bc 58 fd 92 bd
       -0.019240113 -0.0012687824 -0.01953711 -0.07177228
000030 4c dd 92 bc f8 3b d7 bc 90 df 56 3d bc 3e 90 bb
       -0.017927788 -0.026273713 0.0524593 -0.00440201

sequential/embedding/embedding_lookup f4 [10003, 16]
000000 a4 8d 98 3b c8 40 32 bb 85 af c8 bc 1a fa f4 bb
       0.0046555568 -0.0027199257 -0.024497757 -0.0074761035
000010 16 22 46 bd 05 8e 31 3c fa 46 af 3a 8c 2d b3 38
       -0.04837235 0.010837083 0.0013372593 8.543869e-05
000020 b8 68 40 3b 5c 7d fb bb 5f 53 f2 3b 34 a1 f5 ba
       0.0029359292 -0.007674856 0.0073951925 -0.0018740059
000030 6b 9b 45 bc 1d 67 d6 bc de f3 04 bc f2 d6 27 3d
       -0.01206098 -0.026172215 -0.008114783 0.040976472
000040 19 62 29 bd 64 df 81 bd 89 3d 75 bd 2a f1 00 be
       -0.04135332 -0.063414365 -0.059873138 -0.12591997
000050 1d 1d 8e 3d 9e 58 2a 3d 2b 45 3a bd 1d d4 52 3d
       0.06939147 0.04158842 -0.04547612 0.05147182
000060 50 80 a3 3c 90 de 3e 3d 62 76 62 3d fe 0f ba 3d
       0.019958645 0.04659897 0.05528868 0.090850815
000070 b7 fe af 3d 90 e4 ab bd a9 b1 6a bc 76 8b f5 bc
       0.08593505 -0.08393204 -0.014324584 -0.029973727
000080 e0 47 75 be 66 28 2c 3e b7 11 98 bf 4d 06 6f bf
       -0.239532 0.16812286 -1.1880406 -0.9336899
000090 0d 8c ca 3e 43 83 7a 3f 61 46 f8 bd 70 05 44 bd
       0.39559975 0.9785654 -0.12122799 -0.047856748
0000a0 19 a5 85 be 43 7c c0 bc 29 c4 8f 3d 11 3f b5 bd
       -0.26102522 -0.023496753 0.070198365 -0.088499196
0000b0 11 3e f9 3d dd d1 5c bf 1f c9 ea bb 0d 4c 19 bf
       0.12170041 -0.86257726 -0.007165089 -0.5988167
0000c0 e1 9e e4 bd f7 b2 34 3d 69 d2 3b be c9 58 7d be
       -0.11163116 0.044115987 -0.18341984 -0.247409
0000d0 13 e4 20 3e 4d 51 8a 3e 52 25 56 bd 9d 4c 5e bd
       0.15712003 0.27015153 -0.052281685 -0.054272283
0000e0 d6 f9 be bd 61 48 fc bc 35 1d 97 3d ac a8 57 bd
       -0.09324996 -0.030796232 0.07378618 -0.052651092
0000f0 81 38 78 3d db e6 b7 be 82 78 91 3c fd 12 bb bd
       0.06060076 -0.35918316 0.017757658 -0.09134481
000100 08 3a 15 3d ac 0d 91 bd 9a 0c 46 be 8c 21 91 be
       0.036432296 -0.07082686 -0.19340745 -0.28345907
000110 7b 51 03 be ff a8 aa 3d d7 71 ae 3c e2 de 46 3d
       -0.12824051 0.08333015 0.021294517 0.0485524
000120 f7 75 d0 3d ae 39 35 3c 9f 7d ab 3b 88 28 ae 3d
       0.1017875 0.011061115 0.005233481 0.085038245
000130 88 7d 0d 3a ec d1 94 be c2 29 c6 bc c3 06 0a 3c
       0.0005397429 -0.29066408 -0.024189834 0.008424464
000140 66 7b b3 3e 63 d4 5c be 6f a0 e2 3e 32 d1 02 3e
       0.35055083 -0.21565394 0.44263026 0.12775114
000150 15 4b d4 be 3d de 22 bf 2b 84 68 3d 3e 5d 89 3d
       -0.41463533 -0.6362036 0.05676667 0.06707238
000160 14 41 c6 3e ad 2f 39 3d b0 1c d8 bd fd 57 90 3e
       0.38721526 0.045211483 -0.10552347 0.2819213
000170 67 cc 19 bd 8a 16 ff 3d 3e 63 37 3d 47 8d cb 3e
       -0.03754845 0.12455471 0.04477238 0.39756224
000180 8f 15 13 bd 83 83 35 be 95 f4 f6 3d a8 4e d2 bd
       -0.03590923 -0.17725949 0.12058369 -0.10268909
000190 15 94 37 3d 33 d1 75 be 98 6b c8 bd 08 98 11 3e
       0.044818956 -0.24005584 -0.09786147 0.14218152
0001a0 40 51 c3 3d 10 57 e4 3d f2 fd 4e 3d 7a f0 4c 3e
       0.095369816 0.11149418 0.05053515 0.2001361
0001b0 7b 49 ea 3d 91 a5 e9 bd 73 f1 e4 bd b8 00 fb 3c
       0.114397965 -0.114085324 -0.11178865 0.030639991
0001c0 4e 5f 99 be b3 1c 4f 3d 16 7e 25 be 8f 50 30 be
       -0.29955524 0.05056448 -0.16161379 -0.1721823
0001d0 89 69 ca 3e c3 77 7e 3e 88 b9 23 be 84 77 28 3b
       0.39533642 0.24850373 -0.15988743 0.0025706002
0001e0 d7 e2 70 be 19 99 12 be e4 15 59 3e d6 e2 e6 bd
       -0.23524033 -0.14316215 0.21199757 -0.11273734
0001f0 89 5d 21 3e 3c 84 8c be b2 27 40 be c2 56 0f be
       0.15758337 -0.27444637 -0.18765143 -0.13997939
000200 d7 3b 20 be 00 48 9c 3b 1a 59 ae be f0 01 97 be
       -0.15647827 0.0047693253 -0.34052354 -0.29493666
000210 b7 e6 f6 3d 85 9c ab 3e 2e 6f 15 bd 3f dc c8 3b
       0.12055724 0.33517852 -0.036482982 0.006129771
000220 76 20 86 3c d4 7a 60 3c 7c 7e fa 3c 8e 25 35 3d
       0.0163729 0.0137011595 0.03057789 0.044225268
000230 d9 53 70 3d 79 6e 44 be 24 1e a5 bd a9 06 0d be
       0.058673713 -0.19182767 -0.080623895 -0.13772072
000240 12 43 30 be 9f 45 08 bc b8 e2 1d be 57 a8 4a be
       -0.17213085 -0.00831738 -0.15418518 -0.19790779
000250 fc 99 29 3e a2 f7 3d 3e 69 eb cb bd a4 18 45 bd
       0.16562647 0.18551496 -0.0995701 -0.048119202
000260 ee 58 e3 bd 8d bc 85 bc 28 42 10 3e ba 40 7f 3a
       -0.11100946 -0.01632526 0.14087737 0.0009737123
000270 c0 d0 82 bc 7f 72 bf bd 3e 25 e4 bd 4e 92 08 bd
       -0.01596868 -0.0934801 -0.11139916 -0.033342652
000280 87 e9 53 bd 59 d1 cb bb d5 50 87 bd 29 4f 1f be
       -0.05173638 -0.0062200245 -0.06607214 -0.15557541
000290 60 ec 55 bc 2d 7c b2 3d 4b 64 90 3c bc 3b 0f bd
       -0.0130568445 0.08715091 0.017625948 -0.034969077
0002a0 6d 2e 9a bd b4 fc 8f bd 7b 7f 0d bd a0 8d ce bc
       -0.07528386 -0.07030621 -0.034545403 -0.025214016
0002b0 50 a5 36 bd ad 9d 56 be 5d 15 04 3d f0 70 bb bb
       -0.044591248 -0.20958586 0.032246936 -0.0057202503
0002c0 4d fb ae bd 39 d3 b5 bd a5 ba 23 be bf a0 af be
       -0.085440256 -0.08878178 -0.15989168 -0.34302327
0002d0 69 e1 46 3e 8d 53 2d 3e f8 60 36 bd aa b8 42 3d
       0.19421925 0.16926403 -0.04452607 0.04753939
0002e0 60 e8 38 3c 27 df 34 bc 42 6c 6a 3d 0b 56 a7 3d
       0.011285871 -0.011039532 0.05723215 0.08170708
0002f0 c1 2e 99 3d 4d 1b 31 be 32 44 7b bd db 8d e4 bd
       0.07479621 -0.1729557 -0.061344333 -0.11159869
000300 14 21 2e be d1 99 12 3e 3e 35 19 bf c2 c2 05 bf
       -0.17004806 0.14316489 -0.59846866 -0.522503
000310 a0 49 8b 3e 63 be 0f 3f 38 c5 bb bd bb 81 ab bd
       0.2720461 0.5614988 -0.09168476 -0.083743535
000320 b5 25 74 be 0c 40 aa bd 2f 6f 98 3d 29 53 0a be
       -0.23842509 -0.08312997 0.074430816 -0.13508286
000330 9d bf a3 3c 2b 87 dd be 0b 56 a5 bc ce b8 be be
       0.01998883 -0.43267187 -0.02018263 -0.3725037
000340 a5 89 58 be ba a9 c2 bd d4 70 23 3c d4 37 aa bc
       -0.21146257 -0.09505029 0.009975631 -0.020778574
000350 53 aa 74 3e 97 77 b0 bd b2 b5 3c be 27 63 ce 3d
       0.23893099 -0.0861656 -0.18428686 0.100775056
000360 21 24 49 bd f2 89 b6 3c 84 25 29 3e 29 6f ba 3d
       -0.04910672 0.022282574 0.16518217 0.09103233
000370 06 b4 22 3e 56 91 8c bb fc ca 56 be a8 24 68 bc
       0.15888986 -0.0042897863 -0.2097587 -0.014168896
000380 c4 0c a3 3e fd 8e 3a be 6b 71 53 bd 84 22 a0 bd
       0.31845677 -0.18218608 -0.051621836 -0.07819083
000390 2e ff 97 be f8 0a 29 3c 4d 88 1e 3e 8b 93 03 bc
       -0.29686874 0.010317557 0.15481682 -0.008030782
0003a0 4a 99 4f 3e 45 00 f6 3d 7a 53 fe bd 17 04 f4 3d
       0.20273319 0.1201177 -0.12418266 0.119148426
0003b0 38 9c b4 bd d1 7a b0 bd e5 6f 7a 3d 9b ef 28 3e
       -0.08818859 -0.08617175 0.061141867 0.16497652
0003c0 61 dc 37 3e 1a ba 38 be ee 07 1b 3d 67 c9 70 bd
       0.17955162 -0.18039742 0.03784936 -0.058785822
0003d0 bc 49 1f be c8 a7 08 be aa c0 d8 3d 2b cf 0d bd
       -0.15555471 -0.13345253 0.10583623 -0.0346214
0003e0 fb a1 5e 3e da ce f3 3d a7 32 6d bd a5 87 af 3d
       0.21741478 0.11904688 -0.057909634 0.08570794
0003f0 b4 36 8a 3d 62 b9 af 3c 73 97 59 3d ee 44 12 3e
       0.06748715 0.021450702 0.05312295 0.14284107

sequential/dense/MatMul f4 [16, 16]
000000 d9 b7 95 c0 4b 36 17 bf f1 12 fb 3e 13 b0 1f 3f
       -4.6786923 -0.5906722 0.4903789 0.6237804
000010 b3 15 e5 3e 7f 02 29 bf ac 3a a5 c0 0c b4 9a 40
       0.44743118 -0.66019434 -5.163412 4.8344784
000020 39 44 54 40 35 1c e7 3e b5 b8 af 3f 71 ac 6b 40
       3.316664 0.45138708 1.3728243 3.6824
000030 ad fa 25 3f e6 ef 8f 3e e4 ac d9 bf 92 aa c0 3d
       0.64835626 0.28112715 -1.7005887 0.09407534
000040 a2 1b 96 3d 9c 80 48 be d6 f6 ac 3e 3a a5 86 be
       0.07329489 -0.1958031 0.3378207 -0.26297933
000050 06 29 04 3e f2 a3 7b 3d 6f 7b 46 3e e0 45 3b 3e
       0.12906274 0.061435647 0.19383024 0.18288374
000060 a9 08 c3 be 6b e5 c2 be e1 1c 97 3e 28 1b b1 bd
       -0.38092545 -0.38065657 0.2951422 -0.08647758
000070 ea 93 41 be 0e e7 dc be 9c d7 3c bb 90 e8 2e be
       -0.18904081 -0.4314503 -0.0028815037 -0.17080903
000080 ef ab bf be 4f 62 74 be 84 e9 f4 3d 0c e1 fd bd
       -0.37435862 -0.23865627 0.11958602 -0.1239644
000090 36 df a8 3c 2e e3 29 be f3 94 6b 3e a3 52 66 be
       0.020614248 -0.16590568 0.23006038 -0.22492461
0000a0 23 1d 27 bd ba 30 68 bd 72 c2 31 bd e5 7d 79 3e
       -0.04079927 -0.056687094 -0.043398328 0.24364431
0000b0 51 4c 9c be 1a 7f 89 3e 76 9a 57 3d a6 fd 30 be
       -0.30526975 0.26854783 0.05263754 -0.17284259
0000c0 a4 57 01 3e 4d ec ca 3e bc ed dd bc 42 0c d2 be
       0.12631088 0.39633408 -0.0270909 -0.41024977
0000d0 25 18 02 3e 2e 6e 79 be e3 30 33 3e 41 11 b3 be
       0.12704523 -0.24358436 0.17499118 -0.349741
0000e0 7e 18 42 3d 7e 01 9a bd 32 82 e6 3d d0 ee 57 be
       0.04738664 -0.07519816 0.112553015 -0.21087193
0000f0 d1 14 9d bd 39 93 84 be 61 22 0e be 5b 83 76 3e
       -0.07669986 -0.25893572 -0.13880302 0.24073546
000100 33 38 ab 40 e8 0c 4d 3e 9a c4 b1 3e 40 7d 96 3e
       5.3506103 0.20024455 0.34720308 0.29392433
000110 e9 43 34 bf 4a 49 8c be 16 68 b1 40 e2 8c 82 c0
       -0.7041612 -0.27399665 5.543956 -4.0796976
000120 f2 24 af bf c0 2a 7a bf d6 4b ae bf 34 69 36 c0
       -1.368315 -0.9772148 -1.3616893 -2.850171
000130 1c 5f 09 bf 5d ce 40 3e 5f ac 92 3f 76 ef e1 3e
       -0.5366075 0.18828721 1.1458853 0.44128007
000140 ac 7c 9c 40 f3 86 38 3f fc 61 5b 3e b4 c7 a5 3e
       4.8902187 0.72080916 0.21424097 0.32378924
000150 9c 5d 2d bf 7b 4b 9f be 17 93 96 40 de a0 91 c0
       -0.6772096 -0.31112275 4.7054553 -4.550887
000160 ef 7b 07 c0 02 de 47 bf 7d 93 9d bf f3 f8 2d c0
       -2.1169393 -0.7807313 -1.2310635 -2.7183197
000170 b1 d7 58 bf d6 0c 2d 3e 22 bb bc 3f ba 22 03 3f
       -0.8470412 0.16899428 1.4744608 0.51224864
000180 88 5b ae bd c8 66 2a be f3 84 bb 3e 43 cb 96 3e
       -0.08513552 -0.1664077 0.3662487 0.2945195
000190 21 95 3e 3e 1b f4 c5 3e 4d af fa bc b5 fa d6 3e
       0.18611576 0.386628 -0.030601168 0.4198815
0001a0 91 09 8b 3c 3d d4 c1 3e 05 92 ac be 8f 76 8b be
       0.016972335 0.37857237 -0.33705154 -0.2723889
0001b0 3e c6 ce 3e 40 22 c3 be 97 9e 8c be f0 14 c7 bc
       0.40385622 -0.38112068 -0.27464744 -0.024301976
0001c0 24 a2 30 bf 59 c0 c6 bc 16 7b a8 3e b7 c0 70 3d
       -0.68997407 -0.02426164 0.32906407 0.058777537
0001d0 94 5f 7c be d3 fd 67 bd 6b ce a5 bf b6 33 90 3f
       -0.24645835 -0.05663855 -1.2953619 1.1265781
0001e0 9e da 9e 3f bf 80 1a 3f 54 77 1c 3f d9 72 83 3f
       1.2410467 0.603527 0.6111958 1.0269424
0001f0 20 c3 4a 39 20 8d 25 bd 7c d0 06 bf f9 83 fd 3d
       0.00019336911 -0.04041779 -0.5266187 0.123786874
000200 01 3d 0b bd 72 0e 17 3e d6 89 b3 be 84 f2 8c 3c
       -0.033993725 0.14751604 -0.35066098 0.017205484
000210 e0 6e 53 3e 58 50 c7 bd e4 04 f5 3d 21 a8 00 3e
       0.20647764 -0.09732121 0.119638234 0.12564136
000220 35 62 cc 3e 21 f3 aa be d2 53 33 3e b5 aa 97 3e
       0.39918676 -0.33388618 0.17512444 0.29622427
000230 4a 6c c1 be 9b 41 76 bc 10 b5 59 be 7c e9 b6 bd
       -0.3777793 -0.01503029 -0.21260476 -0.08931252
000240 c7 50 68 40 ae cc 4b 3e 92 d4 12 3e 47 6e 96 be
       3.6299303 0.19902298 0.14338902 -0.2938101
000250 23 de bd be d3 d7 6e bd 3e ad 91 40 c7 5e 7f c0
       -0.3708354 -0.058311295 4.5523977 -3.9901597
000260 c6 6d 15 c0 ba 7d 3c bf 61 84 1f bf 71 fd 35 c0
       -2.334825 -0.73629344 -0.6231137 -2.8435938
000270 e1 ab 2f bf ff c1 5e be 14 02 8d 3f 99 f8 8a 3e
       -0.6862164 -0.21753691 1.1016259 0.2714279
000280 d5 41 8e be d5 f7 71 3e e2 0a 90 3e 46 99 cc be
       -0.277846 0.23629697 0.28133303 -0.39960688
000290 f4 be 48 be d2 c6 7e be 9e 04 22 be 87 da 98 be
       -0.19604093 -0.24880531 -0.15822074 -0.29854223
0002a0 62 ad 09 be 5c 0b ad 3e 25 b2 22 be 5b 16 87 be
       -0.13445047 0.3379773 -0.15888269 -0.26384243
0002b0 7f 5e 22 be ed cc 98 3e d3 b2 96 3c ed 9e a9 3e
       -0.1585636 0.29843846 0.018395817 0.33129063
0002c0 3e 13 ad 40 6c 24 e4 3e 55 d2 a1 bd 88 bf 83 3e
       5.408599 0.44559038 -0.07901446 0.25732064
0002d0 a1 e2 5a bf b7 6d 65 3e 5c bd ae 40 06 63 8a c0
       -0.8550206 0.22405134 5.460615 -4.324588
0002e0 2c 3e ed bf cd 03 65 be 5a ff 9c bf f5 57 1a c0
       -1.8534598 -0.22364731 -1.2265427 -2.4116185
0002f0 6e 8c 8f bf bf f8 98 3e 9a 04 bd 3f 4b 14 3d 3f
       -1.1214731 0.29877278 1.4767029 0.7385909
000300 64 77 c8 3e 21 89 c9 3e 01 c0 ac 3e fd 64 97 3e
       0.39153588 0.39362434 0.33740237 0.29569235
000310 b2 d0 93 be 14 0d e2 be 2e 6a bb be 1e f0 6b bb
       -0.2887016 -0.44150603 -0.36604446 -0.0036001275
000320 6b c5 5a be ac 40 6b be 76 47 18 bd 27 a9 8d 3e
       -0.21364371 -0.22973889 -0.037177525 0.27668115
000330 5a 67 03 3e f7 6b aa bd bf ef 3d 3e 04 aa d1 be
       0.12832394 -0.08321374 0.18548487 -0.40950024
000340 83 bd 96 40 bc b3 1f 3f dd b4 71 3e 85 77 f1 3e
       4.7106338 0.6238363 0.2360415 0.471615
000350 9f 9d 5b bf 97 93 93 be 4b c0 98 40 75 21 90 c0
       -0.85787386 -0.2882354 4.7734733 -4.504084
000360 a4 a4 e6 bf 22 80 65 bf 62 68 c6 bf 32 b9 25 c0
       -1.8018994 -0.8964864 -1.5500605 -2.5894284
000370 fe 09 19 bf dd 12 61 3c 7b 06 c7 3f d0 76 8e 3e
       -0.5978087 0.0137374075 1.5548853 0.27825022
000380 59 e0 76 c0 69 fb 29 bf 47 49 ad 3e 02 46 29 3e
       -3.857443 -0.66399246 0.3384497 0.16530612
000390 18 15 c8 3e fb 47 3c be ee 37 99 c0 c6 6e a8 40
       0.39078593 -0.18386833 -4.7880774 5.263522
0003a0 4d 86 3e 40 f0 b4 5f 3f fe 02 ae 3f 56 a9 69 40
       2.976947 0.87385464 1.3594663 3.6509604
0003b0 5e 7a 56 3f 67 f0 90 3e 12 c7 c2 bf 48 c0 17 3e
       0.8378047 0.28308412 -1.5217001 0.14819443
0003c0 27 82 71 3e 1d ba 97 3d f3 99 6f bd 28 8f 22 3d
       0.23584805 0.07408545 -0.058496427 0.039687306
0003d0 85 95 5e 3e 61 33 08 be 8c 36 13 bd 83 b4 99 be
       0.21736725 -0.1330085 -0.03594069 -0.30020532
0003e0 db 6d 96 3e b7 b8 34 bd 2c 46 89 3e 1a 50 31 3e
       0.29380688 -0.04412147 0.2681135 0.17315713
0003f0 eb 00 61 3e 22 5f 80 be 3a 4f 60 be 25 bc a9 be
       0.21973006 -0.2507258 -0.21905223 -0.33151355

sequential/dense_1/MatMul f4 [2, 16]
000000 ab 06 5b 40 12 71 84 be ec f8 36 3e 63 cf 85 3e
       3.422282 -0.25867516 0.17868394 0.26134786
000010 9a a3 54 c0 cd db 58 c0 86 b7 b3 be d1 a3 83 3f
       -3.3224854 -3.3884156 -0.35100955 1.0284368
000020 c6 2b 07 bd 26 07 30 c0 10 93 ca 3e d9 03 66 c0
       -0.03300073 -2.7504363 0.39565325 -3.5939848
000030 8d db da be 9c 04 50 c0 72 ca 3e 40 a1 9a 4f be
       -0.4274563 -3.2502813 2.9811063 -0.2027383
000040 49 a1 6f c0 38 d4 cb be 47 83 1d be 77 fc 8f be
       -3.744219 -0.39810348 -0.1538211 -0.28122303
000050 f5 70 6d 40 9f 45 5e 40 d2 a6 83 3e ec 7f 89 bf
       3.7100194 3.4729993 0.2571321 -1.0742164
000060 07 db bd 3e f9 f4 3b 40 0e 32 d3 bd 75 27 63 40
       0.37081167 2.936827 -0.103122815 3.5492833
000070 06 6b 3e 3d 8b bd 4b 40 68 b6 46 c0 4f 35 11 3f
       0.046488784 3.1834438 -3.1048832 0.5672197
